cell_track/bash/cell-tracker-gnn-main/outputs/2023-11-20/13-48-43/logs_2D_MultiSimilarityLoss/saved_models/embedder_1000.pth (torch, 264065 bytes, 4 tensors)

net.0.weight f4 [128, 512]
000000 c5 5f 11 bc a6 1d b9 ba 94 6f 9c bb 8e 0b d1 bb
       -0.008872931 -0.0014123216 -0.0047740433 -0.0063795513
000010 28 00 22 bb 6f 1f a0 3b 7d 1d 72 bb 9e 74 3b 3b
       -0.0024719331 0.0048865597 -0.0036943846 0.0028603445
000020 46 7c ca bc ff d1 00 bc 66 2f ae bb f9 8c 24 3c
       -0.024717461 -0.007862567 -0.005315709 0.010043376
000030 a5 03 6e bc 40 14 8e 3b a8 9f 93 3b 76 38 29 bc
       -0.014527236 0.00433591 0.0045051165 -0.010328403
000040 c3 6c 21 bc eb 68 b0 bb 17 0b 40 3d f7 7a 8c 3c
       -0.009852591 -0.005383601 0.046885576 0.017148478
000050 90 81 a6 3b 49 8a 08 3b 8a d5 00 00 53 87 26 3b
       0.005081363 0.0020834378 7.6603e-41 0.002541025
000060 25 62 20 bb b8 00 67 bb ad 1c 38 ba 39 30 69 3b
       -0.0024472561 -0.003524823 -0.0007023316 0.0035581721
000070 69 bf 50 bb dd af 00 00 86 b1 a3 3a 19 47 f2 3a
       -0.003185237 6.3088e-41 0.0012488819 0.0018484324
000080 81 b6 f0 3b 4d 4c 21 bc 28 5c 9d bc 28 74 be 3a
       0.007345975 -0.009844852 -0.019208983 0.0014530467
000090 7e 7f 8a 3c 6f aa dd 3b 54 9f 27 bc 7e 9e 89 bc
       0.016906496 0.006764702 -0.010230858 -0.016799208
0000a0 09 4c 3c 3b e5 2c b2 b8 89 f8 6c bc a1 b8 b4 bc
       0.0028731844 -8.496064e-05 -0.014463552 -0.022060694
0000b0 b9 34 82 34 93 ba 9a ba 64 6d 89 bb 50 77 ee b8
       2.4252748e-07 -0.0011804871 -0.0041939486 -0.00011370948
0000c0 f5 7c ca 3a 85 55 be 3c d6 1e 66 bb 44 8b 57 bb
       0.0015448617 0.023234138 -0.0035113594 -0.0032889405
0000d0 37 3e 14 ba ed a6 e8 bc ab 98 b8 3c ac cb 82 bb
       -0.00056550227 -0.028399909 0.022533735 -0.0039915647
0000e0 53 98 ae ba ac f3 59 3b 14 d0 f0 bb ca 1a a2 bb
       -0.0013320543 0.0033256812 -0.0073490236 -0.004947041
0000f0 ae 49 8b 3b 22 0c 75 3b f6 6a 8a 3c 28 7c b2 3c
       0.0042507267 0.0037391265 0.016896706 0.021787718
000100 9e d8 2d 3c 23 97 a9 bb 8a 8a 9b a1 b4 de 50 bc
       0.010610728 -0.0051754876 -1.053988e-18 -0.012748409
000110 f7 f1 be bc 07 91 00 00 39 d5 85 ba 9b 8c 65 bc
       -0.023308737 5.2026e-41 -0.001021064 -0.014010574
000120 8d b5 00 00 3f cd 84 bc ec 1d ac 3b f9 0c 53 bb
       6.5128e-41 -0.01621115 0.0052525904 -0.0032203777
000130 40 79 f0 bb 37 d4 bd 3b 3d e1 98 3b d7 99 9d ba
       -0.007338673 0.0057931202 0.0046655224 -0.0012023997
000140 3c a3 00 80 90 5b 46 3c da 33 8c bc 0f 1c e6 3b
       -5.8557e-41 0.012106791 -0.017114569 0.007022388
000150 f8 ef 89 bc c1 d8 a9 3c 48 8d a7 3b 36 7e ec bb
       -0.016838059 0.02073324 0.0051132776 -0.007217194
000160 b4 73 41 3c ac 80 3b bb da 96 70 39 b0 12 dd bb
       0.011807371 -0.002861063 0.0002294438 -0.0067466125
000170 c6 b2 ae 39 cb 8e d6 3c 97 34 2b bc e0 4e 49 bc
       0.00033321063 0.026191136 -0.01044955 -0.012286872
000180 57 5a a9 bb c9 6a c3 ba e1 e0 b2 bb 5c 52 b5 3a
       -0.00516824 -0.0014909144 -0.0054589366 0.0013833749
000190 6a a8 59 3a 70 d9 01 3c 7a e2 c5 38 1e b4 3d 3a
       0.0008302989 0.007925376 9.4358766e-05 0.00072366174
0001a0 d5 52 72 bb 73 a6 c8 bb 4c 5a de 3b 01 6e 34 bc
       -0.0036975641 -0.006123358 0.0067856666 -0.011012555
0001b0 30 7e e5 bb 02 c7 14 3c 61 bc 4b 3c 25 d6 5b bc
       -0.007003568 0.00908065 0.01243505 -0.013417755
0001c0 d3 7d 1d bc 41 74 65 bb c9 e0 88 bc b8 3a 85 bb
       -0.009612518 -0.003501192 -0.016708748 -0.0040658377
0001d0 99 6d 26 bc 5f 57 99 3c a4 ec 0d 3b 61 48 83 38
       -0.010157966 0.01871842 0.0021655941 6.2600484e-05
0001e0 38 b9 e4 3c 0a ea 8a 3c b9 f5 cd ba a8 b9 d8 3b
       0.02792035 0.016957302 -0.001571349 0.006613929
0001f0 bb f4 8a bc c6 54 f0 3b 05 7b 9c bc fa 3f be 3b
       -0.0169624 0.0073343245 -0.019101629 0.0058059664
000200 8d 1c 7f bc 88 77 4a 3c fb 3f 70 3b 02 68 35 bb
       -0.015570772 0.0123576 0.003665923 -0.0027680402
000210 83 3b 13 bc f5 50 e3 3b 20 21 d9 bb 6b 4c 77 3c
       -0.008986357 0.006937141 -0.0066262633 0.015093903
000220 de 9b ec 3c 5a 45 c8 3b 94 30 5b 3c 31 04 df 15
       0.028882917 0.006111783 0.013378281 9.0075596e-26
000230 39 df 3f bb 1b 95 bf 39 65 91 d7 bb 17 0b 55 bb
       -0.0029277338 0.0003654145 -0.0065786117 -0.003250783
000240 7c 81 0a bb 0e 49 7d 3c 94 5f 8c bc c0 19 39 bc
       -0.0021134308 0.015459312 -0.017135419 -0.011297643
000250 65 2f 3e bc 56 6c 41 bb af c5 8d 3c 03 41 de 3a
       -0.011607979 -0.0029514036 0.017306177 0.0016956631
000260 45 33 3c bb 59 d0 de bb b4 d1 cb 3b af 53 df bb
       -0.0028717082 -0.0067997393 0.006220067 -0.006815396
000270 18 a2 ae bb 2c 49 46 39 74 e5 8d ba 5a 73 8e 3a
       -0.0053293817 0.0001891001 -0.0010825829 0.0010868118
000280 34 38 11 bd 92 f4 2c bd 79 71 a4 36 fc d8 fb bb
       -0.03545399 -0.042225428 4.900791e-06 -0.0076857787
000290 d1 f1 98 bb 42 17 00 00 95 dc d9 3b 21 a3 07 3b
       -0.0046674986 8.343e-42 0.00664861 0.0020696598
0002a0 5b 69 5e bc aa 60 fc 3b 32 5f ec 3b 2f 2b 86 bc
       -0.013574923 0.007701953 0.0072134966 -0.016378013
0002b0 e6 18 26 bb ab f3 6f 3c 22 5c a2 3c 5d 9c dc b9
       -0.002534443 0.014645497 0.019819323 -0.0004207817
0002c0 80 0d af 3b 50 b6 1f bb 2e c7 43 3c 5f 45 c3 bb
       0.0053421855 -0.0024370141 0.011949344 -0.0059591974
0002d0 31 2b 29 3d 47 b5 01 3d 05 98 4b bc 8c e6 a5 bb
       0.041300956 0.03166702 -0.012426381 -0.0050628837
0002e0 bb 11 7e ba f5 3f 88 3b b5 5b b3 3b 7e 53 2b 3b
       -0.0009691973 0.004158015 0.005473579 0.0026142295
0002f0 8f bf 98 3c c6 8c 3b 3c 79 f5 3a bc ca 02 8f 3b
       0.01864603 0.011447137 -0.011411064 0.004364346
000300 83 87 a1 3c 4d 8e 77 3b 5a 9f 11 bd f0 99 7d 3a
       0.019717937 0.0037774027 -0.03555236 0.00096741226
000310 f2 fd 03 bc a7 13 29 3c 88 fe 1d bb cb 4a 41 bc
       -0.008056151 0.010319627 -0.0024108011 -0.011797617
000320 69 60 37 3a 33 df a8 bb cd 5c 90 ba 01 42 85 3c
       0.0006995262 -0.0051535605 -0.0011013985 0.016266825
000330 c4 b7 ad 3a 0d e5 b8 39 11 2e 6e bc 9d aa 06 bb
       0.0013253619 0.0003526587 -0.01453735 -0.002054847
000340 25 b0 b0 bc af ca ba bb c7 f8 05 3a 70 5e 98 3b
       -0.021568367 -0.0057004313 0.0005110618 0.0046499297
000350 01 19 8c 3c 6b 1b 01 00 f0 bf 09 3d 22 8d 59 bc
       0.017101767 1.01671e-40 0.03363031 -0.013278278
000360 55 20 38 bc 50 8b 1f bc 04 a6 7c bc aa 3c 16 bc
       -0.011238177 -0.0097378045 -0.015420441 -0.009169737
000370 d0 3c 00 80 35 62 40 3b a5 4b d4 bb 8f dc 00 3c
       -2.1815e-41 0.002935541 -0.006478744 0.007865085
000380 2f 49 5a bc d4 1f 0e 3c 31 c9 00 00 76 1e a9 3b
       -0.013323112 0.008674581 7.2174e-41 0.005161102
000390 fa 38 82 3b 82 27 04 ba 67 ea 6a 3b 08 95 89 3c
       0.0039740773 -0.00050412875 0.003584528 0.016794696
0003a0 43 5a 3c bb 33 c3 c4 3b 78 46 2e bc 0c 70 ce 3b
       -0.0028740324 0.006004715 -0.010636918 0.006299978
0003b0 d8 1c 7c 3c e2 2a 4f bb e2 97 a6 ba af 0d 15 bd
       0.015387736 -0.0031611254 -0.001271006 -0.036390003
0003c0 0d 7b ae bb e9 db 00 00 b8 91 0d b9 97 e3 62 3c
       -0.0053247274 7.8889e-41 -0.00013501092 0.013848207
0003d0 21 a7 08 3c cc 1f eb b7 01 b3 4d 3b 78 ba 05 bc
       0.008340628 -2.802899e-05 0.0031387212 -0.008162133
0003e0 45 04 85 bc bc 57 06 bc 0a ed 0b 3c 31 b7 79 3c
       -0.016237387 -0.008199628 0.008540401 0.01524143
0003f0 de 51 b3 3b 32 4b d6 3b 9a cd 83 ba d4 61 81 39
       0.005472406 0.0065397257 -0.0010055781 0.00024677685

net.0.bias f4 [128]
000000 69 27 05 3b 5c b9 e2 bb 9a 0d 22 3c 1d 08 06 3a
       0.002031768 -0.006919069 0.009890938 0.00051129033
000010 5a 5d ea bb 34 ad cd 3a a4 fb 7a 3c 4d 33 9f bc
       -0.0071522417 0.0015691877 0.015318785 -0.019433642
000020 49 0f 06 3c 72 a7 a2 ba 4e d9 66 bb d7 fb 46 3b
       0.008182355 -0.0012409522 -0.0035224739 0.003036251
000030 51 16 26 3b 7a 1c 83 3b db 16 34 3c 18 a3 04 3c
       0.0025342891 0.0040011974 0.010991777 0.008095525
000040 64 a3 ac 3b 7c 1a 32 3b 33 9f a5 bb 07 b9 85 bb
       0.005268501 0.002717643 -0.0050543784 -0.004080895
000050 ee 01 33 3c 1b aa 92 bc 8b e4 93 ba 7d f5 84 bb
       0.010925753 -0.017903378 -0.0011283321 -0.004057585
000060 14 8b 33 3c 2e 6d fd ba e5 9c 88 3b 31 02 07 bb
       0.010958452 -0.0019334906 0.004169094 -0.0020600671
000070 51 c9 cd b9 cb ea a7 bb e6 fa 54 3b 56 e9 1f 3b
       -0.0003925064 -0.005124425 0.003249818 0.0024400554
000080 f6 51 57 ba 17 af 97 ba 5a df 50 3b af d1 24 bc
       -0.0008213812 -0.0011572567 0.003187141 -0.010059758
000090 27 29 23 bc 11 d9 74 bc f4 65 6a 3b ea bd 82 3b
       -0.009958542 -0.014944331 0.0035766335 0.0039899247
0000a0 e7 fb 17 bb 2f 26 15 3c 9f 55 94 3b af 29 24 3b
       -0.0023190917 0.009103342 0.0045268084 0.002504926
0000b0 1b 24 78 38 f8 24 98 b9 e7 66 14 ba d8 84 33 3c
       5.9161433e-05 -0.00029019243 -0.00056610856 0.010956965
0000c0 cb dd b0 b9 7f 9e b0 b9 8c 73 74 bb 02 9f 3e 3b
       -0.00033734585 -0.00033687425 -0.0037300317 0.0029086475
0000d0 95 1b ee bb 17 25 1f 39 2d 07 3f 3b c4 2d 5d 3b
       -0.0072664716 0.00015177239 0.0029148564 0.0033749202
0000e0 3c 13 3b 3c 75 8f d1 bb fb 0f 60 bc 6d c0 da bb
       0.01141816 -0.0063952752 -0.013675685 -0.006675771
0000f0 f0 bb 61 bc 0d 7a 13 3c d6 01 26 bb 5f f6 67 bb
       -0.013777718 0.009001267 -0.0025330684 -0.0035394651
000100 6e 96 75 3c 78 a6 ee 3b 0b d3 93 3b 66 a4 d5 ba
       0.0149894785 0.007283028 0.0045112423 -0.0016299605
000110 5a 97 62 bb 8f 34 ef 3b c3 71 2c 3c 23 ac a5 bb
       -0.0034575076 0.0072999666 0.01052517 -0.0050559207
000120 28 8b 13 3b 94 7d 06 3b 78 4b 49 3a 4c a7 56 3b
       0.0022513364 0.0020521628 0.0007678787 0.0032753525
000130 6a 61 41 bc 6f 7f 2a 3c 34 24 93 3b 94 99 01 3b
       -0.0118030105 0.010406359 0.0044903997 0.0019775378
000140 f9 dd 1d bc 1c 03 2c 3c fb db 37 3b ea af 7b bb
       -0.009635442 0.010498788 0.0028054703 -0.0038404413
000150 77 2f aa ba 3a 1d b7 bb 53 ff 22 3c a1 56 38 3c
       -0.0012984116 -0.005588201 0.009948569 0.011251123
000160 10 8f f3 bb 6e 3b b8 3b dd d6 93 3a ee 6a e5 bb
       -0.007432826 0.005622319 0.0011279244 -0.0070012724
000170 5d 3d e1 bb cc c3 58 ba ce 8a 1e bc 73 60 2c 3c
       -0.00687377 -0.0008268922 -0.009676648 0.010521042
000180 62 7c 5b ba 46 6e 01 3c 59 cc c3 3a fe 1f 00 3b
       -0.00083727215 0.007899826 0.001493822 0.0019550319
000190 93 08 12 3c b7 16 89 bb 13 c6 04 3c 46 36 f2 3b
       0.008913177 -0.004183616 0.008103865 0.007391724
0001a0 32 e1 e1 3a 25 55 4a 39 94 6d 2e bb ee fa e2 ba
       0.0017233251 0.0001929594 -0.0026615607 -0.0017317215
0001b0 af f1 d5 3b 78 44 e9 bb 4e 9f 12 bc 94 48 8d bc
       0.006529055 -0.007118758 -0.008949114 -0.017246522
0001c0 14 5d 14 bb 49 d7 06 3c 3d 93 c0 bb 4c 6c 57 3b
       -0.0022638487 0.008230039 -0.005876927 0.0032870946
0001d0 83 56 c7 bb 4f 03 03 bb 31 ad 8e 3c 60 23 9a 39
       -0.006083311 -0.0019990986 0.017416568 0.00029399525
0001e0 7e a1 bc 3b 32 0c a2 3b d8 5c b2 bc b7 7e 16 bc
       0.005756556 0.0049453015 -0.021772787 -0.009185485
0001f0 8a ce c0 3b e5 a4 15 bc ca ac 6c 3c 55 7c 13 bc
       0.0058839964 -0.009133552 0.014445493 -0.009001811

last_linear.weight f4 [128, 512]
000000 c5 5f 11 bc a6 1d b9 ba 94 6f 9c bb 8e 0b d1 bb
       -0.008872931 -0.0014123216 -0.0047740433 -0.0063795513
000010 28 00 22 bb 6f 1f a0 3b 7d 1d 72 bb 9e 74 3b 3b
       -0.0024719331 0.0048865597 -0.0036943846 0.0028603445
000020 46 7c ca bc ff d1 00 bc 66 2f ae bb f9 8c 24 3c
       -0.024717461 -0.007862567 -0.005315709 0.010043376
000030 a5 03 6e bc 40 14 8e 3b a8 9f 93 3b 76 38 29 bc
       -0.014527236 0.00433591 0.0045051165 -0.010328403
000040 c3 6c 21 bc eb 68 b0 bb 17 0b 40 3d f7 7a 8c 3c
       -0.009852591 -0.005383601 0.046885576 0.017148478
000050 90 81 a6 3b 49 8a 08 3b 8a d5 00 00 53 87 26 3b
       0.005081363 0.0020834378 7.6603e-41 0.002541025
000060 25 62 20 bb b8 00 67 bb ad 1c 38 ba 39 30 69 3b
       -0.0024472561 -0.003524823 -0.0007023316 0.0035581721
000070 69 bf 50 bb dd af 00 00 86 b1 a3 3a 19 47 f2 3a
       -0.003185237 6.3088e-41 0.0012488819 0.0018484324
000080 81 b6 f0 3b 4d 4c 21 bc 28 5c 9d bc 28 74 be 3a
       0.007345975 -0.009844852 -0.019208983 0.0014530467
000090 7e 7f 8a 3c 6f aa dd 3b 54 9f 27 bc 7e 9e 89 bc
       0.016906496 0.006764702 -0.010230858 -0.016799208
0000a0 09 4c 3c 3b e5 2c b2 b8 89 f8 6c bc a1 b8 b4 bc
       0.0028731844 -8.496064e-05 -0.014463552 -0.022060694
0000b0 b9 34 82 34 93 ba 9a ba 64 6d 89 bb 50 77 ee b8
       2.4252748e-07 -0.0011804871 -0.0041939486 -0.00011370948
0000c0 f5 7c ca 3a 85 55 be 3c d6 1e 66 bb 44 8b 57 bb
       0.0015448617 0.023234138 -0.0035113594 -0.0032889405
0000d0 37 3e 14 ba ed a6 e8 bc ab 98 b8 3c ac cb 82 bb
       -0.00056550227 -0.028399909 0.022533735 -0.0039915647
0000e0 53 98 ae ba ac f3 59 3b 14 d0 f0 bb ca 1a a2 bb
       -0.0013320543 0.0033256812 -0.0073490236 -0.004947041
0000f0 ae 49 8b 3b 22 0c 75 3b f6 6a 8a 3c 28 7c b2 3c
       0.0042507267 0.0037391265 0.016896706 0.021787718
000100 9e d8 2d 3c 23 97 a9 bb 8a 8a 9b a1 b4 de 50 bc
       0.010610728 -0.0051754876 -1.053988e-18 -0.012748409
000110 f7 f1 be bc 07 91 00 00 39 d5 85 ba 9b 8c 65 bc
       -0.023308737 5.2026e-41 -0.001021064 -0.014010574
000120 8d b5 00 00 3f cd 84 bc ec 1d ac 3b f9 0c 53 bb
       6.5128e-41 -0.01621115 0.0052525904 -0.0032203777
000130 40 79 f0 bb 37 d4 bd 3b 3d e1 98 3b d7 99 9d ba
       -0.007338673 0.0057931202 0.0046655224 -0.0012023997
000140 3c a3 00 80 90 5b 46 3c da 33 8c bc 0f 1c e6 3b
       -5.8557e-41 0.012106791 -0.017114569 0.007022388
000150 f8 ef 89 bc c1 d8 a9 3c 48 8d a7 3b 36 7e ec bb
       -0.016838059 0.02073324 0.0051132776 -0.007217194
000160 b4 73 41 3c ac 80 3b bb da 96 70 39 b0 12 dd bb
       0.011807371 -0.002861063 0.0002294438 -0.0067466125
000170 c6 b2 ae 39 cb 8e d6 3c 97 34 2b bc e0 4e 49 bc
       0.00033321063 0.026191136 -0.01044955 -0.012286872
000180 57 5a a9 bb c9 6a c3 ba e1 e0 b2 bb 5c 52 b5 3a
       -0.00516824 -0.0014909144 -0.0054589366 0.0013833749
000190 6a a8 59 3a 70 d9 01 3c 7a e2 c5 38 1e b4 3d 3a
       0.0008302989 0.007925376 9.4358766e-05 0.00072366174
0001a0 d5 52 72 bb 73 a6 c8 bb 4c 5a de 3b 01 6e 34 bc
       -0.0036975641 -0.006123358 0.0067856666 -0.011012555
0001b0 30 7e e5 bb 02 c7 14 3c 61 bc 4b 3c 25 d6 5b bc
       -0.007003568 0.00908065 0.01243505 -0.013417755
0001c0 d3 7d 1d bc 41 74 65 bb c9 e0 88 bc b8 3a 85 bb
       -0.009612518 -0.003501192 -0.016708748 -0.0040658377
0001d0 99 6d 26 bc 5f 57 99 3c a4 ec 0d 3b 61 48 83 38
       -0.010157966 0.01871842 0.0021655941 6.2600484e-05
0001e0 38 b9 e4 3c 0a ea 8a 3c b9 f5 cd ba a8 b9 d8 3b
       0.02792035 0.016957302 -0.001571349 0.006613929
0001f0 bb f4 8a bc c6 54 f0 3b 05 7b 9c bc fa 3f be 3b
       -0.0169624 0.0073343245 -0.019101629 0.0058059664
000200 8d 1c 7f bc 88 77 4a 3c fb 3f 70 3b 02 68 35 bb
       -0.015570772 0.0123576 0.003665923 -0.0027680402
000210 83 3b 13 bc f5 50 e3 3b 20 21 d9 bb 6b 4c 77 3c
       -0.008986357 0.006937141 -0.0066262633 0.015093903
000220 de 9b ec 3c 5a 45 c8 3b 94 30 5b 3c 31 04 df 15
       0.028882917 0.006111783 0.013378281 9.0075596e-26
000230 39 df 3f bb 1b 95 bf 39 65 91 d7 bb 17 0b 55 bb
       -0.0029277338 0.0003654145 -0.0065786117 -0.003250783
000240 7c 81 0a bb 0e 49 7d 3c 94 5f 8c bc c0 19 39 bc
       -0.0021134308 0.015459312 -0.017135419 -0.011297643
000250 65 2f 3e bc 56 6c 41 bb af c5 8d 3c 03 41 de 3a
       -0.011607979 -0.0029514036 0.017306177 0.0016956631
000260 45 33 3c bb 59 d0 de bb b4 d1 cb 3b af 53 df bb
       -0.0028717082 -0.0067997393 0.006220067 -0.006815396
000270 18 a2 ae bb 2c 49 46 39 74 e5 8d ba 5a 73 8e 3a
       -0.0053293817 0.0001891001 -0.0010825829 0.0010868118
000280 34 38 11 bd 92 f4 2c bd 79 71 a4 36 fc d8 fb bb
       -0.03545399 -0.042225428 4.900791e-06 -0.0076857787
000290 d1 f1 98 bb 42 17 00 00 95 dc d9 3b 21 a3 07 3b
       -0.0046674986 8.343e-42 0.00664861 0.0020696598
0002a0 5b 69 5e bc aa 60 fc 3b 32 5f ec 3b 2f 2b 86 bc
       -0.013574923 0.007701953 0.0072134966 -0.016378013
0002b0 e6 18 26 bb ab f3 6f 3c 22 5c a2 3c 5d 9c dc b9
       -0.002534443 0.014645497 0.019819323 -0.0004207817
0002c0 80 0d af 3b 50 b6 1f bb 2e c7 43 3c 5f 45 c3 bb
       0.0053421855 -0.0024370141 0.011949344 -0.0059591974
0002d0 31 2b 29 3d 47 b5 01 3d 05 98 4b bc 8c e6 a5 bb
       0.041300956 0.03166702 -0.012426381 -0.0050628837
0002e0 bb 11 7e ba f5 3f 88 3b b5 5b b3 3b 7e 53 2b 3b
       -0.0009691973 0.004158015 0.005473579 0.0026142295
0002f0 8f bf 98 3c c6 8c 3b 3c 79 f5 3a bc ca 02 8f 3b
       0.01864603 0.011447137 -0.011411064 0.004364346
000300 83 87 a1 3c 4d 8e 77 3b 5a 9f 11 bd f0 99 7d 3a
       0.019717937 0.0037774027 -0.03555236 0.00096741226
000310 f2 fd 03 bc a7 13 29 3c 88 fe 1d bb cb 4a 41 bc
       -0.008056151 0.010319627 -0.0024108011 -0.011797617
000320 69 60 37 3a 33 df a8 bb cd 5c 90 ba 01 42 85 3c
       0.0006995262 -0.0051535605 -0.0011013985 0.016266825
000330 c4 b7 ad 3a 0d e5 b8 39 11 2e 6e bc 9d aa 06 bb
       0.0013253619 0.0003526587 -0.01453735 -0.002054847
000340 25 b0 b0 bc af ca ba bb c7 f8 05 3a 70 5e 98 3b
       -0.021568367 -0.0057004313 0.0005110618 0.0046499297
000350 01 19 8c 3c 6b 1b 01 00 f0 bf 09 3d 22 8d 59 bc
       0.017101767 1.01671e-40 0.03363031 -0.013278278
000360 55 20 38 bc 50 8b 1f bc 04 a6 7c bc aa 3c 16 bc
       -0.011238177 -0.0097378045 -0.015420441 -0.009169737
000370 d0 3c 00 80 35 62 40 3b a5 4b d4 bb 8f dc 00 3c
       -2.1815e-41 0.002935541 -0.006478744 0.007865085
000380 2f 49 5a bc d4 1f 0e 3c 31 c9 00 00 76 1e a9 3b
       -0.013323112 0.008674581 7.2174e-41 0.005161102
000390 fa 38 82 3b 82 27 04 ba 67 ea 6a 3b 08 95 89 3c
       0.0039740773 -0.00050412875 0.003584528 0.016794696
0003a0 43 5a 3c bb 33 c3 c4 3b 78 46 2e bc 0c 70 ce 3b
       -0.0028740324 0.006004715 -0.010636918 0.006299978
0003b0 d8 1c 7c 3c e2 2a 4f bb e2 97 a6 ba af 0d 15 bd
       0.015387736 -0.0031611254 -0.001271006 -0.036390003
0003c0 0d 7b ae bb e9 db 00 00 b8 91 0d b9 97 e3 62 3c
       -0.0053247274 7.8889e-41 -0.00013501092 0.013848207
0003d0 21 a7 08 3c cc 1f eb b7 01 b3 4d 3b 78 ba 05 bc
       0.008340628 -2.802899e-05 0.0031387212 -0.008162133
0003e0 45 04 85 bc bc 57 06 bc 0a ed 0b 3c 31 b7 79 3c
       -0.016237387 -0.008199628 0.008540401 0.01524143
0003f0 de 51 b3 3b 32 4b d6 3b 9a cd 83 ba d4 61 81 39
       0.005472406 0.0065397257 -0.0010055781 0.00024677685

last_linear.bias f4 [128]
000000 69 27 05 3b 5c b9 e2 bb 9a 0d 22 3c 1d 08 06 3a
       0.002031768 -0.006919069 0.009890938 0.00051129033
000010 5a 5d ea bb 34 ad cd 3a a4 fb 7a 3c 4d 33 9f bc
       -0.0071522417 0.0015691877 0.015318785 -0.019433642
000020 49 0f 06 3c 72 a7 a2 ba 4e d9 66 bb d7 fb 46 3b
       0.008182355 -0.0012409522 -0.0035224739 0.003036251
000030 51 16 26 3b 7a 1c 83 3b db 16 34 3c 18 a3 04 3c
       0.0025342891 0.0040011974 0.010991777 0.008095525
000040 64 a3 ac 3b 7c 1a 32 3b 33 9f a5 bb 07 b9 85 bb
       0.005268501 0.002717643 -0.0050543784 -0.004080895
000050 ee 01 33 3c 1b aa 92 bc 8b e4 93 ba 7d f5 84 bb
       0.010925753 -0.017903378 -0.0011283321 -0.004057585
000060 14 8b 33 3c 2e 6d fd ba e5 9c 88 3b 31 02 07 bb
       0.010958452 -0.0019334906 0.004169094 -0.0020600671
000070 51 c9 cd b9 cb ea a7 bb e6 fa 54 3b 56 e9 1f 3b
       -0.0003925064 -0.005124425 0.003249818 0.0024400554
000080 f6 51 57 ba 17 af 97 ba 5a df 50 3b af d1 24 bc
       -0.0008213812 -0.0011572567 0.003187141 -0.010059758
000090 27 29 23 bc 11 d9 74 bc f4 65 6a 3b ea bd 82 3b
       -0.009958542 -0.014944331 0.0035766335 0.0039899247
0000a0 e7 fb 17 bb 2f 26 15 3c 9f 55 94 3b af 29 24 3b
       -0.0023190917 0.009103342 0.0045268084 0.002504926
0000b0 1b 24 78 38 f8 24 98 b9 e7 66 14 ba d8 84 33 3c
       5.9161433e-05 -0.00029019243 -0.00056610856 0.010956965
0000c0 cb dd b0 b9 7f 9e b0 b9 8c 73 74 bb 02 9f 3e 3b
       -0.00033734585 -0.00033687425 -0.0037300317 0.0029086475
0000d0 95 1b ee bb 17 25 1f 39 2d 07 3f 3b c4 2d 5d 3b
       -0.0072664716 0.00015177239 0.0029148564 0.0033749202
0000e0 3c 13 3b 3c 75 8f d1 bb fb 0f 60 bc 6d c0 da bb
       0.01141816 -0.0063952752 -0.013675685 -0.006675771
0000f0 f0 bb 61 bc 0d 7a 13 3c d6 01 26 bb 5f f6 67 bb
       -0.013777718 0.009001267 -0.0025330684 -0.0035394651
000100 6e 96 75 3c 78 a6 ee 3b 0b d3 93 3b 66 a4 d5 ba
       0.0149894785 0.007283028 0.0045112423 -0.0016299605
000110 5a 97 62 bb 8f 34 ef 3b c3 71 2c 3c 23 ac a5 bb
       -0.0034575076 0.0072999666 0.01052517 -0.0050559207
000120 28 8b 13 3b 94 7d 06 3b 78 4b 49 3a 4c a7 56 3b
       0.0022513364 0.0020521628 0.0007678787 0.0032753525
000130 6a 61 41 bc 6f 7f 2a 3c 34 24 93 3b 94 99 01 3b
       -0.0118030105 0.010406359 0.0044903997 0.0019775378
000140 f9 dd 1d bc 1c 03 2c 3c fb db 37 3b ea af 7b bb
       -0.009635442 0.010498788 0.0028054703 -0.0038404413
000150 77 2f aa ba 3a 1d b7 bb 53 ff 22 3c a1 56 38 3c
       -0.0012984116 -0.005588201 0.009948569 0.011251123
000160 10 8f f3 bb 6e 3b b8 3b dd d6 93 3a ee 6a e5 bb
       -0.007432826 0.005622319 0.0011279244 -0.0070012724
000170 5d 3d e1 bb cc c3 58 ba ce 8a 1e bc 73 60 2c 3c
       -0.00687377 -0.0008268922 -0.009676648 0.010521042
000180 62 7c 5b ba 46 6e 01 3c 59 cc c3 3a fe 1f 00 3b
       -0.00083727215 0.007899826 0.001493822 0.0019550319
000190 93 08 12 3c b7 16 89 bb 13 c6 04 3c 46 36 f2 3b
       0.008913177 -0.004183616 0.008103865 0.007391724
0001a0 32 e1 e1 3a 25 55 4a 39 94 6d 2e bb ee fa e2 ba
       0.0017233251 0.0001929594 -0.0026615607 -0.0017317215
0001b0 af f1 d5 3b 78 44 e9 bb 4e 9f 12 bc 94 48 8d bc
       0.006529055 -0.007118758 -0.008949114 -0.017246522
0001c0 14 5d 14 bb 49 d7 06 3c 3d 93 c0 bb 4c 6c 57 3b
       -0.0022638487 0.008230039 -0.005876927 0.0032870946
0001d0 83 56 c7 bb 4f 03 03 bb 31 ad 8e 3c 60 23 9a 39
       -0.006083311 -0.0019990986 0.017416568 0.00029399525
0001e0 7e a1 bc 3b 32 0c a2 3b d8 5c b2 bc b7 7e 16 bc
       0.005756556 0.0049453015 -0.021772787 -0.009185485
0001f0 8a ce c0 3b e5 a4 15 bc ca ac 6c 3c 55 7c 13 bc
       0.0058839964 -0.009133552 0.014445493 -0.009001811
