cell_track/bash/cell-tracker-gnn-main/outputs/2023-11-20/13-48-43/logs_2D_MultiSimilarityLoss/saved_models/embedder_best905.pth (torch, 264065 bytes, 4 tensors)

net.0.weight f4 [128, 512]
-0.0019025675 6.3125684e-05 -0.011085582 -0.00572735 0.0027256531 -0.00047840024 -0.00016074584 0.0031005326
-0.021345317 -0.01236902 -0.011702067 0.008206675 -0.011984789 -0.00032584553 0.007835476 -0.009604866
-0.0077303625 -0.0063578207 0.049955066 0.018600045 0.00077484857 0.010805601 -0.0010352068 0.007981099
-0.00636596 0.0021721127 -0.0037030696 0.008951831 -0.0027087766 -3.4962e-41 0.0021353925 0.0056213704
0.009613542 -0.010133131 -0.009509546 -0.0017705655 0.016778972 0.005037665 -0.009415508 -0.012909189
-0.0017289806 -0.006072717 -0.017294817 -0.02092887 -6.815002e-05 -0.007773993 -0.008107203 -0.00011127885
0.0056085666 0.030357441 -0.008805241 -0.0062831626 0.003246662 -0.022405218 0.015075506 -0.0070108054
0.0008880173 0.009777484 -0.009145917 -0.007317429 0.006340231 0.0045715473 0.013283446 0.022903904
0.011499652 -0.0008045277 0.0021270271 -0.012581077 -0.025046207 -0.00014025875 7.654954e-05 -0.016365448
-0.0008485223 -0.017451504 -0.002164473 -0.0015304736 -0.006411643 0.0063785305 0.009582856 -0.0016893672
-2.815961e-05 0.010713588 -0.015076709 0.008968323 -0.021286827 0.021096734 0.005876891 -0.013260405
0.009796385 0.008919563 0.00067129656 -0.00565683 -0.00039916093 0.02525942 -0.00424992 -0.0105492715
-0.0085686445 -0.0008572223 -0.0013092133 -0.006171081 0.0014376002 0.0076492303 0.0031145092 0.0014481252
-0.004093242 -0.0029743437 0.0030886969 -0.01791509 -0.010897558 0.005887158 0.015021092 -0.0109226275
-0.011323298 -0.004527556 -0.01847682 -0.0006039076 -0.017462043 0.024461268 0.01012296 0.00802329
0.028282396 0.008472049 0.00010921136 0.010619757 -0.016719861 0.007361783 -0.0112445345 0.008817469
-0.017400468 0.014694023 0.0018236467 -0.0029727656 -0.0075751673 0.012725101 -0.0049107885 0.011870676
0.026281023 0.0088863205 0.014448396 -0.0006113293 0.0008139618 0.007814487 -0.0057589295 -0.005369677
0.00091192755 0.014111376 -0.02085335 -0.014587932 -0.01021244 -0.008456575 0.018225398 0.003878664
-0.006515007 -0.0034818198 0.01768183 0.00092579884 -0.0042684125 -0.001797776 0.0022806514 0.004076913
-0.03356111 -0.041899603 0.0010471947 -0.0056300126 -0.0042825597 -2.7032e-41 0.005736861 -0.002028499
-0.019483633 0.0028663303 0.010527256 -0.014339691 -0.0050406577 0.014563969 0.015459832 -0.0061993315
0.004273763 -0.0022727863 0.01627437 -0.006940264 0.03774477 0.032342404 -0.011116447 -0.009304265
0.005007129 0.0019590466 -0.0026714492 0.0040891985 0.016548755 0.01654083 -0.0103869075 0.0015384806
0.021837866 0.008883297 -0.030069591 0.0012648574 -0.009113987 0.0060677216 -0.0013233982 -0.010242698
0.008017409 -0.0045499103 0.00039838106 0.024108779 -0.0043274504 -0.0047207335 -0.008806564 -0.0055841715
-0.025699964 -0.013590703 -0.0008676692 0.0042183376 0.013066295 -0.0009575658 0.03204904 -0.0040026936
-0.014422217 -0.0013061459 -0.014872002 0.0017376896 -0.00020443498 0.005459796 -0.005865041 -0.00075159926
-0.016200233 0.012722205 -0.0023619344 0.005159606 0.009009945 -0.009632827 0.004796189 0.017797243
0.004211369 0.0053521455 -0.016260201 0.009724096 0.018078923 -0.004434137 0.0008306661 -0.035336785
-0.0055595725 0.0008578689 -0.0021788701 0.014696744 0.0119928 0.0008989558 0.008541893 -0.01030865
-0.018888667 -0.008968238 0.0071889204 0.019126322 0.006117623 0.0071547125 -0.0046277307 -0.002218095
00000000: 925f f9ba 5862 8438 4da0 35bc 7eac bbbb
00000010: dfa0 323b cbd1 fab9 e28d 28b9 4e32 4b3b
00000020: 60dc aebc 6ea7 4abc 07ba 3fbc 4a75 063c
00000030: d95b 44bc 3fd6 aab9 5e60 003c ba5d 1dbc
00000040: fb4e fdbb 4455 d0bb af9d 4c3d 1f5f 983c
00000050: 351f 4b3a fa09 313c c7af 87ba 28c3 023c
00000060: 8b99 d0bb 015a 0e3b 33af 72bb b3aa 123c
00000070: bb85 31bb 7661 0080 f1f1 0b3b 7933 b83b
00000080: 1e82 1d3c 6f05 26bc edcd 1bbc 5212 e8ba
00000090: 0e74 893c ff12 a53b 8143 1abc 1081 53bc
000000a0: f69e e2ba a4fd c6bb dcad 8dbc 0673 abbc
000000b0: c3eb 8eb8 fbbc febb 13d4 04bc 615e e9b8
000000c0: 11c8 b73b 2bb0 f83c dc43 10bc fde2 cdbb
000000d0: f3c5 543b 268b b7bc 41ff 763c e6ba e5bb
000000e0: d5c9 683a be31 203c c2d8 15bc 0bc7 efbb
000000f0: b6c1 cf3b ebcc 953b d0a2 593c f8a0 bb3c
00000100: 0969 3c3c f1e6 52ba 9865 0b3b dd20 4ebc
00000110: b42d cdbc 6c12 13b9 3989 a038 d510 86bc
00000120: 5e6f 5eba 75f6 8ebc d5d9 0dbb 2c9a c8ba
00000130: c218 d2bb fe02 d13b 6901 1d3c c26d ddba
00000140: 4d38 ecb7 0c88 2f3c 4d04 77bc dfef 123c
00000150: b661 aebc 0fd3 ac3c ef92 c03b 2b42 59bc
00000160: 0481 203c 5c23 123c f3f9 2f3a ee5c b9bb
00000170: 7946 d1b9 d8ec ce3c ea42 8bbb dad6 2cbc
00000180: 8063 0cbc 37b7 60ba e999 abba c836 cabb
00000190: dc6d bc3a 65a6 fa3b cb1c 4c3b 05cf bd3a
000001a0: 9a20 86bb 35ed 42bb bc6b 4a3b abc2 92bc
000001b0: ac8b 32bc 10e9 c03b 071b 763c d2f4 32bc
000001c0: 5b85 39bc e45b 94bb b35c 97bc 8e4f 1eba
000001d0: 8f0c 8fbc ff62 c83c c6da 253c 1e74 033c
000001e0: 7cb0 e73c 59ce 0a3c 6708 e538 7dfe 2d3c
000001f0: 17f8 88bc 1d3b f13b ff3a 38bc 2577 103c
00000200: 6d8b 8ebc 33bf 703c 6e07 ef3a bbd2 42bb
00000210: 1c39 f8bb f17c 503c aeea a0bb 397d 423c
00000220: 4d4b d73c ee97 113c f7b8 6c3c 9d41 20ba
00000230: 0d60 553a 5608 003c 67b5 bcbb 1ef4 afbb
00000240: 6c0e 6f3a 6733 673c a5d4 aabc 3902 6fbc
00000250: 1452 27bc 728d 0abc 6e4d 953c 2f31 7e3b
00000260: d77b d5bb 3e2f 64bb 7cd9 903c 4fb1 723a
00000270: 0ade 8bbb 5aa3 ebba fb76 153b a097 853b
00000280: 6077 09bd eb9e 2bbd 0642 893a f87b b8bb
00000290: b754 8cbb 5b4b 0080 47fc bb3b 91f0 04bb
000002a0: 249c 9fbc 0bd9 3b3b 837a 2c3c 06f1 6abc
000002b0: 1a2c a5bb b79d 6e3c 3c4b 7d3c c323 cbbb
000002c0: ec0a 8c3b 07f3 14bb d451 853c 276b e3bb
000002d0: 439a 1a3d 7879 043d c221 36bc ea70 18bc
000002e0: d812 a43b 5963 003b 7b13 2fbb affe 853b
000002f0: 4191 873c a280 873c d92d 2abc d8a6 c93a
00000300: 53e5 b23c 408b 113c 8154 f6bc 92c9 a53a
00000310: d552 15bc bdd3 c63b e075 adba fdd0 27bc
00000320: 735b 033c 6a17 95bb cddd d039 c67f c53c
00000330: 49cd 8dbb 62b0 9abb 6849 10bc 6dfb b6bb
00000340: bb88 d2bc 8aab 5ebc 4b74 63ba fb39 8a3b
00000350: 0314 563c 2705 7bba db45 033d 0729 83bb
00000360: 2a4b 6cbc fc32 abba b3a9 73bc 30c3 e33a
00000370: 995d 56b9 17e8 b23b 882f c0bb f906 45ba
00000380: 5ab6 84bc cc70 503c afca 1abb ea11 a93b
00000390: 739e 133c 01d3 1dbc 5929 9d3b 86cb 913c
000003a0: 86ff 893b 0d61 af3b 1d34 85bc d151 1f3c
000003b0: 401a 943c 3d4c 91bb 0fc1 593a 4ebd 10bd
000003c0: 132d b6bb 9be2 603a 60cb 0ebb 9dca 703c
000003d0: 737d 443c e7a7 6b3a 4cf3 0b3c 9de5 28bc
000003e0: 68bc 9abc 84ef 12bc 0991 eb3b ceae 9c3c
000003f0: 5776 c83b 1472 ea3b 38a4 97bb 755d 11bb

net.0.bias f4 [128]
0.0002516925 -0.005942477 0.009956967 0.0023028539 -0.0031187658 0.0013750214 0.013300881 -0.017778488
0.0093413945 -0.001921821 -0.0028442529 0.0025033052 0.0003313497 0.0038017589 0.009550885 0.005688256
0.006853195 0.0016615335 -0.0018729953 -0.0017038448 0.011041175 -0.015715731 -0.00054940436 -0.0027336094
0.012573295 -0.0026118762 0.000632803 0.001708745 0.00017994217 -0.009321321 0.002176793 0.0005449495
0.0013244959 -0.0021111306 0.0030379968 -0.0111054005 -0.010275302 -0.011619309 0.004469044 0.0034395386
-0.003081663 0.008543864 0.0035609335 0.0012808684 0.0027270778 0.0024875 0.0017017511 0.0076713404
-0.002140842 -0.002132039 -0.002859563 0.004822005 -0.0080537535 -0.00040026387 0.0041782972 0.0021666181
0.010568515 -0.0058564437 -0.011328204 -0.0072552604 -0.010736163 0.007619839 -0.0017625972 -0.00535028
0.013249285 0.0064483806 0.0042000525 -0.0032951343 -0.002668884 0.00889308 0.01028786 -0.005818441
0.0047074244 0.0021023513 0.0023575297 0.001958137 -0.009164656 0.0072407713 0.004069877 0.0045805103
-0.007943163 0.011074793 0.0029827969 -0.0030617416 -0.0009919025 -0.0068937503 0.012197525 0.007073016
-0.006936256 0.003223588 0.000501499 -0.008365803 -0.004811776 -0.0027948997 -0.008874349 0.01027108
0.00015576908 0.0092952605 0.0024757483 0.003592333 0.0074710995 -0.0040718606 0.0071451413 0.0053832205
0.0005669134 0.0027772288 -0.0014143424 -0.0031513893 0.005146839 -0.006707334 -0.0076005324 -0.016459694
-0.0016391588 0.0089891665 -0.006322674 0.0019244701 -0.006247379 -0.002238677 0.015169635 -0.00076245324
0.0076606907 0.004491107 -0.020122264 -0.008385387 0.006235845 -0.007554032 0.011410401 -0.010207391
00000000: 98f5 8339 1cb9 c2bb 8c22 233c 7aeb 163b
00000010: 3564 4cbb 103a b43a f0eb 593c 31a4 91bc
00000020: a60c 193c 9de5 fbba a566 3abb 7e0e 243b
00000030: 01b9 ad39 ee26 793b 517b 1c3c 8d64 ba3b
00000040: c490 e03b d0c7 d93a 4b7f f5ba 8b53 dfba
00000050: 0be6 343c 47be 80bc e705 10ba 5b26 33bb
00000060: 3900 4e3c 032c 2bbb b1e2 253a f8f7 df3a
00000070: dcae 3c39 74b8 18bc 87a8 0e3b f1da 0e3a
00000080: b59a ad3a e55a 0abb 2119 473b 6df3 35bc
00000090: be59 28bc ea5e 3ebc 0f71 923b e269 613b
000000a0: baf5 49bb 90fb 0b3c 8d5e 693b d0e2 a73a
000000b0: c6b8 323b 5305 233b 4b0d df3a de5f fb3b
000000c0: 5e4d 0cbb aeb9 0bbb 8267 3bbb e901 9e3b
000000d0: e4f3 03bc 82da d1b9 19ea 883b d2fd 0d3b
000000e0: 9127 2d3c 69e7 bfbb ee99 39bc 89bd edbb
000000f0: bbe6 2fbc d8af f93b f306 e7ba 6751 afbb
00000100: 8713 593c f04c d33b 98a0 893b 2ef3 57bb
00000110: 71e8 2ebb 48b4 113c 6a8e 283c 9fa8 bebb
00000120: bd40 9a3b 9ac7 093b c980 1a3b 1654 003b
00000130: 5a27 16bc fe43 ed3b 9a5c 853b 1b18 963b
00000140: 0a24 02bc 0c73 353c 077b 433b 80a7 48bb
00000150: ba02 82ba f8e4 e1bb 21d8 473c c2c4 e73b
00000160: 8849 e3bb d542 533b 0777 033a b910 09bc
00000170: 1aac 9dbb a32a 37bb b865 11bc 0848 283c
00000180: f255 2339 264b 183c 2a40 223b 596d 6b3b
00000190: 20d0 f43b 3e6d 85bb ca21 ea3b ba65 b03b
000001a0: ea9c 143a 2b02 363b 7561 b9ba 8a87 4ebb
000001b0: d1a6 a83b 32c9 dbbb e30d f9bb 7bd6 86bc
000001c0: 0bd9 d6ba 4c47 133c 6f2e cfbb 803e fc3a
000001d0: d0b6 ccbb c5b6 12bb 108a 783c 5fdf 47ba
000001e0: 8806 fb3b 232a 933b 72d7 a4bc dd62 09bc
000001f0: 0f56 cc3b d087 f7bb b1f2 3a3c e73c 27bc

last_linear.weight f4 [128, 512]
-0.0019025675 6.3125684e-05 -0.011085582 -0.00572735 0.0027256531 -0.00047840024 -0.00016074584 0.0031005326
-0.021345317 -0.01236902 -0.011702067 0.008206675 -0.011984789 -0.00032584553 0.007835476 -0.009604866
-0.0077303625 -0.0063578207 0.049955066 0.018600045 0.00077484857 0.010805601 -0.0010352068 0.007981099
-0.00636596 0.0021721127 -0.0037030696 0.008951831 -0.0027087766 -3.4962e-41 0.0021353925 0.0056213704
0.009613542 -0.010133131 -0.009509546 -0.0017705655 0.016778972 0.005037665 -0.009415508 -0.012909189
-0.0017289806 -0.006072717 -0.017294817 -0.02092887 -6.815002e-05 -0.007773993 -0.008107203 -0.00011127885
0.0056085666 0.030357441 -0.008805241 -0.0062831626 0.003246662 -0.022405218 0.015075506 -0.0070108054
0.0008880173 0.009777484 -0.009145917 -0.007317429 0.006340231 0.0045715473 0.013283446 0.022903904
0.011499652 -0.0008045277 0.0021270271 -0.012581077 -0.025046207 -0.00014025875 7.654954e-05 -0.016365448
-0.0008485223 -0.017451504 -0.002164473 -0.0015304736 -0.006411643 0.0063785305 0.009582856 -0.0016893672
-2.815961e-05 0.010713588 -0.015076709 0.008968323 -0.021286827 0.021096734 0.005876891 -0.013260405
0.009796385 0.008919563 0.00067129656 -0.00565683 -0.00039916093 0.02525942 -0.00424992 -0.0105492715
-0.0085686445 -0.0008572223 -0.0013092133 -0.006171081 0.0014376002 0.0076492303 0.0031145092 0.0014481252
-0.004093242 -0.0029743437 0.0030886969 -0.01791509 -0.010897558 0.005887158 0.015021092 -0.0109226275
-0.011323298 -0.004527556 -0.01847682 -0.0006039076 -0.017462043 0.024461268 0.01012296 0.00802329
0.028282396 0.008472049 0.00010921136 0.010619757 -0.016719861 0.007361783 -0.0112445345 0.008817469
-0.017400468 0.014694023 0.0018236467 -0.0029727656 -0.0075751673 0.012725101 -0.0049107885 0.011870676
0.026281023 0.0088863205 0.014448396 -0.0006113293 0.0008139618 0.007814487 -0.0057589295 -0.005369677
0.00091192755 0.014111376 -0.02085335 -0.014587932 -0.01021244 -0.008456575 0.018225398 0.003878664
-0.006515007 -0.0034818198 0.01768183 0.00092579884 -0.0042684125 -0.001797776 0.0022806514 0.004076913
-0.03356111 -0.041899603 0.0010471947 -0.0056300126 -0.0042825597 -2.7032e-41 0.005736861 -0.002028499
-0.019483633 0.0028663303 0.010527256 -0.014339691 -0.0050406577 0.014563969 0.015459832 -0.0061993315
0.004273763 -0.0022727863 0.01627437 -0.006940264 0.03774477 0.032342404 -0.011116447 -0.009304265
0.005007129 0.0019590466 -0.0026714492 0.0040891985 0.016548755 0.01654083 -0.0103869075 0.0015384806
0.021837866 0.008883297 -0.030069591 0.0012648574 -0.009113987 0.0060677216 -0.0013233982 -0.010242698
0.008017409 -0.0045499103 0.00039838106 0.024108779 -0.0043274504 -0.0047207335 -0.008806564 -0.0055841715
-0.025699964 -0.013590703 -0.0008676692 0.0042183376 0.013066295 -0.0009575658 0.03204904 -0.0040026936
-0.014422217 -0.0013061459 -0.014872002 0.0017376896 -0.00020443498 0.005459796 -0.005865041 -0.00075159926
-0.016200233 0.012722205 -0.0023619344 0.005159606 0.009009945 -0.009632827 0.004796189 0.017797243
0.004211369 0.0053521455 -0.016260201 0.009724096 0.018078923 -0.004434137 0.0008306661 -0.035336785
-0.0055595725 0.0008578689 -0.0021788701 0.014696744 0.0119928 0.0008989558 0.008541893 -0.01030865
-0.018888667 -0.008968238 0.0071889204 0.019126322 0.006117623 0.0071547125 -0.0046277307 -0.002218095
00000000: 925f f9ba 5862 8438 4da0 35bc 7eac bbbb
00000010: dfa0 323b cbd1 fab9 e28d 28b9 4e32 4b3b
00000020: 60dc aebc 6ea7 4abc 07ba 3fbc 4a75 063c
00000030: d95b 44bc 3fd6 aab9 5e60 003c ba5d 1dbc
00000040: fb4e fdbb 4455 d0bb af9d 4c3d 1f5f 983c
00000050: 351f 4b3a fa09 313c c7af 87ba 28c3 023c
00000060: 8b99 d0bb 015a 0e3b 33af 72bb b3aa 123c
00000070: bb85 31bb 7661 0080 f1f1 0b3b 7933 b83b
00000080: 1e82 1d3c 6f05 26bc edcd 1bbc 5212 e8ba
00000090: 0e74 893c ff12 a53b 8143 1abc 1081 53bc
000000a0: f69e e2ba a4fd c6bb dcad 8dbc 0673 abbc
000000b0: c3eb 8eb8 fbbc febb 13d4 04bc 615e e9b8
000000c0: 11c8 b73b 2bb0 f83c dc43 10bc fde2 cdbb
000000d0: f3c5 543b 268b b7bc 41ff 763c e6ba e5bb
000000e0: d5c9 683a be31 203c c2d8 15bc 0bc7 efbb
000000f0: b6c1 cf3b ebcc 953b d0a2 593c f8a0 bb3c
00000100: 0969 3c3c f1e6 52ba 9865 0b3b dd20 4ebc
00000110: b42d cdbc 6c12 13b9 3989 a038 d510 86bc
00000120: 5e6f 5eba 75f6 8ebc d5d9 0dbb 2c9a c8ba
00000130: c218 d2bb fe02 d13b 6901 1d3c c26d ddba
00000140: 4d38 ecb7 0c88 2f3c 4d04 77bc dfef 123c
00000150: b661 aebc 0fd3 ac3c ef92 c03b 2b42 59bc
00000160: 0481 203c 5c23 123c f3f9 2f3a ee5c b9bb
00000170: 7946 d1b9 d8ec ce3c ea42 8bbb dad6 2cbc
00000180: 8063 0cbc 37b7 60ba e999 abba c836 cabb
00000190: dc6d bc3a 65a6 fa3b cb1c 4c3b 05cf bd3a
000001a0: 9a20 86bb 35ed 42bb bc6b 4a3b abc2 92bc
000001b0: ac8b 32bc 10e9 c03b 071b 763c d2f4 32bc
000001c0: 5b85 39bc e45b 94bb b35c 97bc 8e4f 1eba
000001d0: 8f0c 8fbc ff62 c83c c6da 253c 1e74 033c
000001e0: 7cb0 e73c 59ce 0a3c 6708 e538 7dfe 2d3c
000001f0: 17f8 88bc 1d3b f13b ff3a 38bc 2577 103c
00000200: 6d8b 8ebc 33bf 703c 6e07 ef3a bbd2 42bb
00000210: 1c39 f8bb f17c 503c aeea a0bb 397d 423c
00000220: 4d4b d73c ee97 113c f7b8 6c3c 9d41 20ba
00000230: 0d60 553a 5608 003c 67b5 bcbb 1ef4 afbb
00000240: 6c0e 6f3a 6733 673c a5d4 aabc 3902 6fbc
00000250: 1452 27bc 728d 0abc 6e4d 953c 2f31 7e3b
00000260: d77b d5bb 3e2f 64bb 7cd9 903c 4fb1 723a
00000270: 0ade 8bbb 5aa3 ebba fb76 153b a097 853b
00000280: 6077 09bd eb9e 2bbd 0642 893a f87b b8bb
00000290: b754 8cbb 5b4b 0080 47fc bb3b 91f0 04bb
000002a0: 249c 9fbc 0bd9 3b3b 837a 2c3c 06f1 6abc
000002b0: 1a2c a5bb b79d 6e3c 3c4b 7d3c c323 cbbb
000002c0: ec0a 8c3b 07f3 14bb d451 853c 276b e3bb
000002d0: 439a 1a3d 7879 043d c221 36bc ea70 18bc
000002e0: d812 a43b 5963 003b 7b13 2fbb affe 853b
000002f0: 4191 873c a280 873c d92d 2abc d8a6 c93a
00000300: 53e5 b23c 408b 113c 8154 f6bc 92c9 a53a
00000310: d552 15bc bdd3 c63b e075 adba fdd0 27bc
00000320: 735b 033c 6a17 95bb cddd d039 c67f c53c
00000330: 49cd 8dbb 62b0 9abb 6849 10bc 6dfb b6bb
00000340: bb88 d2bc 8aab 5ebc 4b74 63ba fb39 8a3b
00000350: 0314 563c 2705 7bba db45 033d 0729 83bb
00000360: 2a4b 6cbc fc32 abba b3a9 73bc 30c3 e33a
00000370: 995d 56b9 17e8 b23b 882f c0bb f906 45ba
00000380: 5ab6 84bc cc70 503c afca 1abb ea11 a93b
00000390: 739e 133c 01d3 1dbc 5929 9d3b 86cb 913c
000003a0: 86ff 893b 0d61 af3b 1d34 85bc d151 1f3c
000003b0: 401a 943c 3d4c 91bb 0fc1 593a 4ebd 10bd
000003c0: 132d b6bb 9be2 603a 60cb 0ebb 9dca 703c
000003d0: 737d 443c e7a7 6b3a 4cf3 0b3c 9de5 28bc
000003e0: 68bc 9abc 84ef 12bc 0991 eb3b ceae 9c3c
000003f0: 5776 c83b 1472 ea3b 38a4 97bb 755d 11bb

last_linear.bias f4 [128]
0.0002516925 -0.005942477 0.009956967 0.0023028539 -0.0031187658 0.0013750214 0.013300881 -0.017778488
0.0093413945 -0.001921821 -0.0028442529 0.0025033052 0.0003313497 0.0038017589 0.009550885 0.005688256
0.006853195 0.0016615335 -0.0018729953 -0.0017038448 0.011041175 -0.015715731 -0.00054940436 -0.0027336094
0.012573295 -0.0026118762 0.000632803 0.001708745 0.00017994217 -0.009321321 0.002176793 0.0005449495
0.0013244959 -0.0021111306 0.0030379968 -0.0111054005 -0.010275302 -0.011619309 0.004469044 0.0034395386
-0.003081663 0.008543864 0.0035609335 0.0012808684 0.0027270778 0.0024875 0.0017017511 0.0076713404
-0.002140842 -0.002132039 -0.002859563 0.004822005 -0.0080537535 -0.00040026387 0.0041782972 0.0021666181
0.010568515 -0.0058564437 -0.011328204 -0.0072552604 -0.010736163 0.007619839 -0.0017625972 -0.00535028
0.013249285 0.0064483806 0.0042000525 -0.0032951343 -0.002668884 0.00889308 0.01028786 -0.005818441
0.0047074244 0.0021023513 0.0023575297 0.001958137 -0.009164656 0.0072407713 0.004069877 0.0045805103
-0.007943163 0.011074793 0.0029827969 -0.0030617416 -0.0009919025 -0.0068937503 0.012197525 0.007073016
-0.006936256 0.003223588 0.000501499 -0.008365803 -0.004811776 -0.0027948997 -0.008874349 0.01027108
0.00015576908 0.0092952605 0.0024757483 0.003592333 0.0074710995 -0.0040718606 0.0071451413 0.0053832205
0.0005669134 0.0027772288 -0.0014143424 -0.0031513893 0.005146839 -0.006707334 -0.0076005324 -0.016459694
-0.0016391588 0.0089891665 -0.006322674 0.0019244701 -0.006247379 -0.002238677 0.015169635 -0.00076245324
0.0076606907 0.004491107 -0.020122264 -0.008385387 0.006235845 -0.007554032 0.011410401 -0.010207391
00000000: 98f5 8339 1cb9 c2bb 8c22 233c 7aeb 163b
00000010: 3564 4cbb 103a b43a f0eb 593c 31a4 91bc
00000020: a60c 193c 9de5 fbba a566 3abb 7e0e 243b
00000030: 01b9 ad39 ee26 793b 517b 1c3c 8d64 ba3b
00000040: c490 e03b d0c7 d93a 4b7f f5ba 8b53 dfba
00000050: 0be6 343c 47be 80bc e705 10ba 5b26 33bb
00000060: 3900 4e3c 032c 2bbb b1e2 253a f8f7 df3a
00000070: dcae 3c39 74b8 18bc 87a8 0e3b f1da 0e3a
00000080: b59a ad3a e55a 0abb 2119 473b 6df3 35bc
00000090: be59 28bc ea5e 3ebc 0f71 923b e269 613b
000000a0: baf5 49bb 90fb 0b3c 8d5e 693b d0e2 a73a
000000b0: c6b8 323b 5305 233b 4b0d df3a de5f fb3b
000000c0: 5e4d 0cbb aeb9 0bbb 8267 3bbb e901 9e3b
000000d0: e4f3 03bc 82da d1b9 19ea 883b d2fd 0d3b
000000e0: 9127 2d3c 69e7 bfbb ee99 39bc 89bd edbb
000000f0: bbe6 2fbc d8af f93b f306 e7ba 6751 afbb
00000100: 8713 593c f04c d33b 98a0 893b 2ef3 57bb
00000110: 71e8 2ebb 48b4 113c 6a8e 283c 9fa8 bebb
00000120: bd40 9a3b 9ac7 093b c980 1a3b 1654 003b
00000130: 5a27 16bc fe43 ed3b 9a5c 853b 1b18 963b
00000140: 0a24 02bc 0c73 353c 077b 433b 80a7 48bb
00000150: ba02 82ba f8e4 e1bb 21d8 473c c2c4 e73b
00000160: 8849 e3bb d542 533b 0777 033a b910 09bc
00000170: 1aac 9dbb a32a 37bb b865 11bc 0848 283c
00000180: f255 2339 264b 183c 2a40 223b 596d 6b3b
00000190: 20d0 f43b 3e6d 85bb ca21 ea3b ba65 b03b
000001a0: ea9c 143a 2b02 363b 7561 b9ba 8a87 4ebb
000001b0: d1a6 a83b 32c9 dbbb e30d f9bb 7bd6 86bc
000001c0: 0bd9 d6ba 4c47 133c 6f2e cfbb 803e fc3a
000001d0: d0b6 ccbb c5b6 12bb 108a 783c 5fdf 47ba
000001e0: 8806 fb3b 232a 933b 72d7 a4bc dd62 09bc
000001f0: 0f56 cc3b d087 f7bb b1f2 3a3c e73c 27bc
