site_flow/pt/nn_classifier/tut1-model.pt (torch, 40226 bytes, 15 tensors)

conv1.weight f4 [4, 1, 3, 3]
000000 00 9b 1a be c3 c2 38 3e 20 99 af be 12 19 54 bd
       -0.1509819 0.18043046 -0.34296513 -0.05178172
000010 03 05 18 be be fe e0 3d 39 b7 08 bd ef 2d b3 3d
       -0.14845662 0.10986088 -0.03337786 0.087489955
000020 ef c9 40 be 3a d5 c4 3d 95 37 99 3e e2 ee 39 3e
       -0.18827032 0.09610982 0.29925218 0.18157533
000030 42 5e 7a bd 22 5e e2 bd 28 1e 20 3d 8f 24 35 3e
       -0.061125048 -0.11053111 0.03909126 0.17689727
000040 d5 0e 09 bc a0 ff 71 3d ed 4f 89 3e 27 df 8b be
       -0.008365353 0.059081674 0.2681879 -0.2731869
000050 12 e8 8f be 70 4f 4f 3e 27 77 1a 3e 75 39 ad 3e
       -0.28106743 0.20245147 0.15084516 0.338329
000060 02 7f ed 3c 69 0f 92 3d 8b 28 7f be b1 81 80 be
       0.028991226 0.071318455 -0.2491781 -0.25098947
000070 43 54 2a bd a9 af 9c be e7 b0 70 be 40 9f 69 bd
       -0.041584264 -0.30602768 -0.23504983 -0.05703664
000080 73 bc 65 be f4 af ed bc 14 63 1f 3e a6 76 a3 3e
       -0.22435169 -0.029014565 0.15565139 0.3192646

conv1.bias f4 [4]
000000 1d 5f 4f 3e 35 30 74 be fb 03 9f be c2 24 10 3e
       0.20251127 -0.23846515 -0.31057724 0.14076522

bn1.weight f4 [4]
000000 8e a6 86 3f 55 a5 7f 3f 7d dd 7a 3f 33 89 80 3f
       1.0519578 0.9986165 0.97994214 1.004187

bn1.bias f4 [4]
000000 d6 2c eb 3b 6e 3d fd 3c 57 c1 54 3c d0 6e d5 3a
       0.0071769757 0.030913081 0.012985549 0.0016283635

bn1.running_mean f4 [4]
000000 e0 53 11 bb 7a 55 f7 3c 63 64 58 be cc 57 fa bd
       -0.0022175238 0.030192126 -0.21132044 -0.12223777

bn1.running_var f4 [4]
000000 4d 47 32 3c cf af 83 3c 7b 1b 3b 3c 92 02 c0 3c
       0.010881257 0.016075043 0.011420126 0.023438726

conv2.weight f4 [16, 4, 3, 3]
000000 81 6f fc bd cd a8 b7 bd 47 d9 aa bd f1 91 87 bd
       -0.12325955 -0.08967743 -0.083422236 -0.06619633
000010 96 d0 dd bd 84 f3 1f bd 44 f6 44 3d d9 20 ca bd
       -0.108308 -0.039050594 0.04808642 -0.098695464
000020 d8 13 eb 3d a0 d4 00 3d 0e a0 3a 3d fc bb 5c 3e
       0.11478394 0.031452775 0.045562796 0.21556085
000030 c0 cb e4 3d b4 ef 0b 3e c7 7a c4 bd c6 b8 01 bd
       0.11171675 0.13665658 -0.095937304 -0.031670354
000040 d0 cd d0 3d d5 d1 07 bd f8 e2 4c be 26 a6 83 bd
       0.101955056 -0.033159096 -0.20008457 -0.06428175
000050 dd b5 f4 bc c2 6c 0f bd e7 bb a8 bd e3 76 17 3e
       -0.029871875 -0.03501583 -0.082389645 0.14791445
000060 bf 9d e3 3d f5 8b c8 bd 20 76 8a 3d 39 98 ed bc
       0.11114072 -0.0979232 0.06760812 -0.02900325
000070 6c 94 ba 3d c1 6f 3b 3c 35 31 c0 3d c9 8e bd bd
       0.091103405 0.011440218 0.093843855 -0.0925575
000080 dc 8f 0f 3e 5f bd 28 be 1c dc af 3d 40 9c e4 bc
       0.14019722 -0.1647849 0.085869044 -0.027906537
000090 2b dc 2e bd 44 81 17 3e 8d 82 86 3d 98 66 38 3d
       -0.042690437 0.14795405 0.06567869 0.045019716
0000a0 bf cd a9 3d 44 8f e9 3b bf 07 a1 bd a3 77 93 bd
       0.08291196 0.0071276743 -0.078628056 -0.07200553
0000b0 f4 c4 30 3c 5f 7f bc bd 46 4b 98 3d fb 00 54 3e
       0.010789145 -0.092039816 0.07436232 0.20703499
0000c0 7e 01 23 3e 25 51 3d be 8a 4b f3 3d 57 75 02 3e
       0.15918538 -0.18487985 0.11879642 0.12740074
0000d0 89 44 82 bd b6 ca de bd 5e b0 57 3d 62 72 03 3e
       -0.06360728 -0.10878508 0.05265843 0.12836602
0000e0 06 3c c7 bc 18 28 d2 3d 84 06 1d 3e 4a dd 12 be
       -0.024320614 0.102615535 0.15334517 -0.14342228
0000f0 fa 00 01 bd c5 1d 33 bc 81 82 00 3e 53 ce 1d bd
       -0.031495072 -0.010932391 0.12549783 -0.038526844
000100 e4 ee cf bd a1 94 2a 3e 33 12 26 bd 0a 5c 72 bc
       -0.10152987 0.1665826 -0.0405447 -0.014792452
000110 1f 35 d8 3c 4e f3 38 be 40 99 75 bc 57 94 93 3d
       0.026392518 -0.18061563 -0.014990151 0.07206028
000120 ca 51 aa bc 95 16 c2 bd 19 76 7d 3d 4d 21 2d 3d
       -0.020790953 -0.094769634 0.061880205 0.042268086
000130 63 3f a0 bd cf fa 53 3e c9 b1 ec bd 03 f7 4b bd
       -0.0782459 0.20701145 -0.11557347 -0.049796116
000140 b2 46 e5 bd 1f 4b 88 3c 62 9d dd 3d f4 9c 89 bc
       -0.11195125 0.016637383 0.10821034 -0.016798474
000150 cf 8a 55 3d 71 68 d4 bd 0e 63 6d 3d 20 3e 8f bd
       0.05213433 -0.10371483 0.057955794 -0.06994271
000160 6c e0 0a be 48 32 7b bd 8d cc f1 3b 7e 86 c0 bd
       -0.13562173 -0.06132725 0.0073791207 -0.09400652
000170 95 14 6c bd f6 6e dc bc 50 b4 10 3e 90 b9 a4 3b
       -0.057636816 -0.026908379 0.14131284 0.0050270036
000180 2a f7 08 3e 6f bf b4 bd ef 6b 1f 3d 7e 83 a1 3d
       0.13375536 -0.088255756 0.038921293 0.07886408
000190 25 70 5d 3d 72 84 ae bd 26 33 e5 bd 6d 16 3c be
       0.054062027 -0.08521356 -0.111913964 -0.1836793
0001a0 ca c3 92 bd d9 ed db 3d f0 dc 11 3e b8 3f 7f 3d
       -0.0716625 0.10738725 0.14244437 0.062316626
0001b0 9d b7 8a 3d 92 f4 52 3d da 32 0f be a1 9a 4e 3d
       0.06773303 0.05150277 -0.13984242 0.050440434
0001c0 bc d2 a2 bb 41 64 16 3d 32 04 1c bd 39 a5 0c 3c
       -0.004968969 0.036716703 -0.03808994 0.008584314
0001d0 48 a7 e7 bd 5c 66 dd bc ca 47 3c 3e f1 ee 13 3e
       -0.11311203 -0.027026348 0.1838676 0.14446618
0001e0 1d 02 d7 3c 1b 2a 95 bd 70 65 ea bd d3 09 c3 bd
       0.026246125 -0.072834216 -0.11445129 -0.09523358
0001f0 0c 60 5a bd a6 88 46 3e c1 7b 5e bd 9b 08 af 3c
       -0.053314254 0.19388065 -0.05431724 0.021366408
000200 40 17 e6 bd b9 95 23 3e 20 9a 08 3e bc 9b bb bb
       -0.11234903 0.15975083 0.13340044 -0.005725352
000210 0b 99 11 3e 47 a3 71 3d 02 86 ae 3c f6 6b 2a be
       0.14218538 0.058993604 0.021304134 -0.16642746
000220 a7 38 cc 3d d2 df ba bd a8 16 53 bd c2 c4 3b 3d
       0.09971743 -0.091247216 -0.05153528 0.04584194
000230 fc 6f 9d bd a3 ba a2 3d f9 f5 a3 bc 39 32 79 3d
       -0.07687375 0.079457544 -0.02001475 0.06083891
000240 27 15 1d be a0 a5 5f 3e 6d 70 23 3e 36 cd 3b ba
       -0.153401 0.21840525 0.15960856 -0.00071640627
000250 92 09 09 bd c0 73 fd 3d ed ce cc 3d 70 d3 3e 3e
       -0.033456393 0.12375593 0.100004055 0.18635345
000260 e9 c6 a4 3d 30 63 d4 3d 37 3d 08 3e 5b ce 96 bd
       0.080457516 0.10370481 0.13304602 -0.07363578
000270 e1 78 92 bd e9 c2 21 bd e2 bc d2 bd 62 ed 0c 3e
       -0.07151962 -0.03949252 -0.10289933 0.1376243
000280 90 2e 90 bd 16 92 89 bd ec 30 9d 3c cd 09 6d bd
       -0.07040131 -0.06717317 0.019188367 -0.057870675
000290 49 78 fb 3d f0 39 96 3d ec 51 34 bd b1 7d 5d 3c
       0.12278802 0.073352695 -0.04402344 0.013518737
0002a0 c8 e2 08 be 81 70 01 be 8b fa 85 3d 95 ab 36 3d
       -0.1336776 -0.12640573 0.06541928 0.044597227
0002b0 8e ff 25 3e 6b 2b 85 bd e5 0c 52 bd 1b a7 85 bd
       0.16210768 -0.06502422 -0.05128183 -0.065260135
0002c0 08 0e 49 3e 8c 9b ef bd 9a 07 d5 bd ff ac a2 bb
       0.19634259 -0.1169959 -0.104018405 -0.0049644704
0002d0 e8 5e 53 be 24 c5 30 3e 02 7a 32 bd 39 97 8e 3d
       -0.20641673 0.17262703 -0.043573387 0.06962437
0002e0 e1 7e a1 3c 38 41 06 3e dd 5b 12 bd 8a da 4a 3d
       0.01971382 0.13110816 -0.03573214 0.04952482
0002f0 2f 99 4d bd 0f eb e8 3b e1 d6 3a bd 1d 03 92 bc
       -0.050194915 0.0071080993 -0.04561508 -0.01782375
000300 b3 79 9c bd ed 2f b7 bb c6 55 02 3e 5b 10 2b 3e
       -0.076404 -0.00559043 0.12728032 0.16705458
000310 dd ba f2 bd 18 dd 8d bd bd d6 00 be bc 50 ca bc
       -0.118520476 -0.06926936 -0.12581916 -0.0246967
000320 34 db c6 3d 5d a9 ba 3d 7a ad d5 3c ff b1 e3 bd
       0.097097784 0.09114335 0.026083697 -0.111179344
000330 3d af 20 bd 0f 6d 85 3d 10 61 8c 3d 5b ab 63 bd
       -0.03922962 0.06514942 0.06854451 -0.05558334
000340 27 a0 ba 3d 59 85 6c 3d 84 63 21 3e 2b 1d 87 bd
       0.09112578 0.057744358 0.15760618 -0.0659736
000350 6d e7 35 3d 81 05 c0 bd 7e df c3 bb 36 98 07 be
       0.044410158 -0.0937605 -0.00597757 -0.13241658
000360 0b 79 cd bd 71 92 cb b9 49 b0 1f be b5 ba de 3b
       -0.10032853 -0.00038828285 -0.15594591 0.0067971596
000370 1a c8 cc 3d ea 93 89 3b cd e3 99 3d 56 f4 11 3e
       0.09999104 0.004198541 0.07514153 0.14253363
000380 31 86 81 bc f3 1e 1c be 84 00 1a 3e 95 00 6b bd
       -0.015811058 -0.15246181 0.15039259 -0.057373602
000390 d3 0d c7 bd cf ac 59 3d 94 f7 82 bc 36 ab 28 3e
       -0.09719434 0.05314332 -0.015987195 0.16471562
0003a0 84 e6 fe bd 89 41 ae 3c 26 3e ec 3d 50 6d fa 3d
       -0.12446311 0.021271484 0.115352914 0.12227881
0003b0 a0 66 11 3b f1 01 6a 3b 01 e3 0a be 24 ee 82 3d
       0.0022186413 0.0035706724 -0.13563158 0.06393078
0003c0 cb 33 c9 3d 12 8d 4a bd fa 23 9b 3d 49 39 bc ba
       0.09824332 -0.04945094 0.07575221 -0.0014360334
0003d0 3c c1 06 be 7c 07 fe 3d d2 bc 76 bd 72 e0 df 3d
       -0.1315965 0.12403771 -0.060238667 0.109314814
0003e0 48 1c e1 bd 7c 0c 26 bd c1 5b f8 3d 3d 43 b1 bb
       -0.10991722 -0.04053925 0.12126876 -0.0054096268
0003f0 bb da a2 bd 31 9a 19 bd 2f dc dc 3c da be 43 be
       -0.07951876 -0.037500564 0.02696046 -0.19115773

conv2.bias f4 [16]
000000 be 36 01 be 7b be 31 3e 10 d8 0f 3d 01 05 34 3d
       -0.12618539 0.17357819 0.035118163 0.043950085
000010 72 22 0c be 49 4a 1e 3e bf 51 bc bd 1c 9b b4 3d
       -0.13685015 0.15458025 -0.09195279 0.08818647
000020 e9 ce 3d 3e 62 c5 cd bd 4f 1d d9 bd dc 5b bc 3d
       0.18535961 -0.100474134 -0.10601293 0.09197208
000030 cc 07 68 3d 5f 6c aa 3d 5f c4 6e 3d d9 4d b7 bd
       0.05664806 0.083214514 0.058292743 -0.08950395

bn2.weight f4 [16]
000000 81 1e 8a 3f 71 a0 88 3f a2 95 93 3f cc 58 90 3f
       1.0790559 1.0673963 1.1530039 1.1277099
000010 5a 03 87 3f 25 5d 93 3f 6d a9 8f 3f c7 aa 8e 3f
       1.0547898 1.15128 1.122358 1.1145867
000020 65 f7 88 3f dc 8a 8f 3f e8 d4 89 3f 22 5d 90 3f
       1.0700499 1.1214252 1.0768099 1.1278422
000030 80 6c 85 3f d5 90 87 3f 48 4c 8b 3f 4c 20 88 3f
       1.0423737 1.0591074 1.0882654 1.0634856

bn2.bias f4 [16]
000000 a1 dd 91 3c b8 b9 f1 3c 79 6e 0d 3c ed 5f 27 bc
       0.017805876 0.029507503 0.008632296 -0.010215742
000010 08 a3 97 3b 84 6c 2c 3c 55 1b 4c 3c a5 27 67 3d
       0.004627589 0.010523919 0.012457688 0.056434292
000020 e5 e5 08 3d 27 dd 12 3c a8 bc b4 3b a3 ac cb 3c
       0.03342237 0.00896386 0.0055156536 0.024862593
000030 0f 7d 93 bc 1d ca cf 3a bc cc 32 3d ad 5f 93 3c
       -0.018003969 0.0015853081 0.04365228 0.017989958

bn2.running_mean f4 [16]
000000 3b d9 42 bd 52 8e f8 3e 9c 1c c8 bd 99 72 4c 3e
       -0.04757045 0.48546082 -0.09771082 0.1996559
000010 76 64 7d 3d c7 36 49 3e d3 1e 1a 3c 9e 49 8d bc
       0.061863385 0.19649802 0.009406763 -0.017247017
000020 73 6d 48 3f b1 4f 0a 3e 07 51 7c bd c1 38 3e 3e
       0.78292006 0.13506962 -0.06160071 0.18576337
000030 45 29 07 be ac 60 bd 3e 5e 45 42 be b1 87 b1 be
       -0.13199337 0.36987817 -0.18971774 -0.34673837

bn2.running_var f4 [16]
000000 6f 39 3f 3e 51 79 13 3e e1 7f 45 3d c5 72 cc 3d
       0.18674253 0.14401747 0.048217658 0.09982828
000010 49 7d 2a 3e c8 20 a2 3d 50 6f 3f 3d 3b c2 a9 3d
       0.16649355 0.07916409 0.046737015 0.08289
000020 51 72 e0 3d 95 67 99 3d f7 e0 f0 3d ae fd dd 3d
       0.10959304 0.0749046 0.11761659 0.10839401
000030 4d 93 9b 3d a3 29 3a 3e dc 77 94 3d 58 b5 32 3e
       0.07596455 0.18179946 0.07249424 0.1745199

fc1.weight f4 [10, 784]
000000 7f b0 95 bd bc a9 2c bd 9a 5e 8b bd dc 59 5d bd
       -0.073090546 -0.04215406 -0.06805153 -0.054040775
000010 cc 12 e7 3c 52 ac ab bd a6 80 9b bd 0b 2c f4 bc
       0.028207205 -0.08382477 -0.07592897 -0.029806158
000020 4f f6 e5 bc fb 37 55 bc 9b ec 39 3d d1 2d 81 3d
       -0.02807155 -0.013013835 0.04539166 0.06307567
000030 13 43 33 bd 25 c3 00 bd 30 5b 6d bd 14 73 ba bb
       -0.04376514 -0.031436104 -0.05794829 -0.005689988
000040 01 dc 0c bd 6c 6d 3c bc 6a 93 e3 bc 17 39 4c 3d
       -0.0343895 -0.011500698 -0.027780253 0.049859133
000050 a7 1f ef bc 02 d0 0b bd 94 d4 49 bd aa 3c 4d bc
       -0.029189898 -0.03413392 -0.049274996 -0.0125266705
000060 b9 b3 46 3a 8e 57 59 3d 6b 0a 9b 3d 65 4c 62 3d
       0.00075798813 0.053062014 0.075703464 0.055248637
000070 1e 72 35 3d d4 71 46 3c df 08 16 bd 61 7f 25 bd
       0.044298284 0.0121121 -0.036629554 -0.04040468
000080 f0 41 e5 bc fd 0e 1d 3d 40 67 00 3d c9 a5 2f bd
       -0.027985543 0.038344372 0.031348467 -0.042882714
000090 4c 25 e0 bb da 9d cf bc 00 f1 a8 bb 5e 61 2c 3d
       -0.0068403836 -0.025343824 -0.0051556826 0.042085044
0000a0 2d 17 ed 3c f1 ed 6d 3d 00 df bc 3a c1 b9 f7 3c
       0.028941715 0.058088247 0.0014409721 0.030239942
0000b0 d3 e9 4b 3c 2a 96 85 3d f1 4e d5 3c 1b 23 8a 3c
       0.012445885 0.06522782 0.026038619 0.016862443
0000c0 85 63 38 bd f3 cd 4e bd 1f 4f 3f 3b c6 d2 e5 bd
       -0.045016784 -0.050489377 0.0029191447 -0.112218425
0000d0 c3 21 97 bd 26 87 97 bb 18 55 ce bc fc 63 19 bd
       -0.073794864 -0.0046242652 -0.02518706 -0.03744887
0000e0 35 29 7d bd 0f d2 bd bc 8f 21 35 3d 2e 5f 10 bd
       -0.061806876 -0.023171453 0.044221457 -0.03524702
0000f0 c9 44 ce 3b 04 37 63 3d f2 19 65 3b 6d 60 50 bc
       0.006294821 0.05547239 0.0034958092 -0.012718302
000100 96 9e b5 3d e8 63 2d 3c ed 4a 27 bc 53 c3 e0 bb
       0.088681385 0.010582902 -0.010210735 -0.006859222
000110 53 99 85 3a 20 15 a2 3c 2a 4f 28 3d 5c dc 55 bd
       0.0010192789 0.019785464 0.04109112 -0.052212104
000120 bd 21 52 bd 85 c9 cc 3c 98 9c 9c 3c 16 dd 39 bc
       -0.051301707 0.024998436 0.019117638 -0.011344215
000130 fa 99 0d bd a5 92 6c 3d 5a 04 6d 3d ab 2c 31 3d
       -0.03457067 0.05775704 0.057865478 0.04325549
000140 b1 03 e6 bc 9a 04 30 3c 0e d5 bd bc b2 ae 64 bc
       -0.028077932 0.010743285 -0.023172881 -0.013957666
000150 31 d8 af bd 75 9f 50 bc 18 45 7c 3d 6c 7f 7e 3c
       -0.08586157 -0.01273333 0.06158933 0.015533309
000160 74 62 75 bb b9 cd 1f 3d 75 9c 8f 3d bb 62 85 bc
       -0.0037442716 0.03901455 0.07012264 -0.01628243
000170 32 01 00 bd e9 26 52 3d a0 f8 97 3d b0 43 69 3d
       -0.03125114 0.05130664 0.07420468 0.056949317
000180 93 f3 d7 bc c2 d1 3e 3c 1f a4 e1 bd 47 d8 ac bc
       -0.026361262 0.01164669 -0.11017632 -0.021099223
000190 af e8 c8 3c 7d 96 21 3c 32 b0 9f bd e1 53 83 bb
       0.024525015 0.009862539 -0.077972785 -0.004007802
0001a0 5d b9 d2 bc 77 40 6a 3d 4b cc 48 3d 74 ed e6 3c
       -0.025723154 0.057190385 0.049022954 0.028189398
0001b0 6b d1 06 3d 16 2a 25 bd 81 43 49 3c b5 13 0a bd
       0.03291456 -0.04032334 0.012284161 -0.0337102
0001c0 cc 56 d8 bb 86 64 ac 3d f2 ac 25 3d f2 1f 9b 3d
       -0.006602144 0.08417611 0.040448137 0.075744525
0001d0 72 46 85 3d 2c f6 e2 bc b1 e6 da 3c c1 bd 70 3d
       0.06507577 -0.027705275 0.02672133 0.058774713
0001e0 bf c6 e4 bc 4c 1d b2 3d 75 35 5a 3c 83 eb da bc
       -0.0279268 0.08696994 0.013318409 -0.026723629
0001f0 0a 60 b7 3c e9 0c 73 bd 4b 5a 95 bb 61 dc d4 bb
       0.022384662 -0.059338484 -0.004557883 -0.006495998
000200 f5 ee 59 bd 6e 9d 14 bd 91 7d 81 3c a9 cb 4b 3c
       -0.053206403 -0.03628295 0.015806945 0.012438693
000210 1d 3e 16 3d c5 0c de 3b 81 95 98 3c a5 36 29 bd
       0.03668033 0.0067764246 0.018625977 -0.04131188
000220 ae f6 aa bd b7 6b 21 3d 2f f8 c9 3b d2 7f 19 3c
       -0.08347832 0.039409366 0.006163619 0.009368854
000230 cf 35 0e bd 49 a8 18 be db d9 5d bc 1f 46 37 bc
       -0.034719285 -0.14907946 -0.01354071 -0.011186152
000240 be 5d 19 3d ad 37 86 3b 98 93 af 3d 38 0a 76 bd
       0.037442915 0.0040959925 0.08573073 -0.06006834
000250 a2 b4 5d bc 66 7b 44 bd 48 7f 07 bd e3 3b 71 bd
       -0.013531836 -0.047969244 -0.03308037 -0.058895003
000260 d6 08 85 bd 7c e0 89 bd 0c 13 a6 bc b6 32 3d 3d
       -0.06495826 -0.0673227 -0.020272754 0.04619094
000270 16 e9 26 3d 57 8f 01 bd 72 df 80 bd 4f dc 94 3c
       0.04074963 -0.03163084 -0.06292619 0.018171458
000280 ca 05 1a 3c 0a 61 0a bc 61 be b4 3c 68 ce 3a 3d
       0.009400794 -0.0084459875 0.022063436 0.045607
000290 9c 6d 15 3d 35 ce 51 3b 93 21 47 bb 1d 02 90 3d
       0.036481485 0.0032013778 -0.0030385002 0.07031653
0002a0 2a 1e 9e bc 00 23 1f bc dc 3b 9e 3d e0 00 04 3d
       -0.019301493 -0.0097129345 0.07726261 0.032227397
0002b0 8a 1f 13 bd 2e 20 10 bc 44 cf 17 3d 2f 1b 0c 3d
       -0.03591875 -0.008796735 0.0370629 0.03420561
0002c0 10 8d bc ba 92 c6 0e 3e a3 1b 7e bb d2 40 36 3c
       -0.0014385302 0.13942936 -0.0038773797 0.011123853
0002d0 b8 c5 93 39 d2 a9 45 bc 1c 6f 58 3c 2b b5 34 3c
       0.00028185337 -0.012064414 0.013210084 0.011029522
0002e0 92 31 8e 3c 83 4c e6 3c fd e0 6b 3c 64 c1 6e 3d
       0.017357621 0.028112656 0.014396903 0.0582899
0002f0 9a 7e 95 3d f7 1a f3 bb 38 de f0 bc ef 50 4a 3c
       0.07299538 -0.007418986 -0.029402837 0.012348398
000300 45 94 1d ba b5 8e 63 bd 3a 8b b2 3c 56 25 7d bd
       -0.00060111686 -0.055556018 0.021794904 -0.061803184
000310 fb fd 75 3c 4e 34 7d 3d aa 52 04 bd b9 9e 3d 3d
       0.015014167 0.06181746 -0.032305397 0.046293948
000320 07 3c c1 bc da 55 78 bd 1b 00 95 3c c8 01 78 bc
       -0.023588194 -0.06062875 0.018188527 -0.015137143
000330 d7 10 5b bd 71 1c 4c bd ac 4d f3 3d 25 d9 a6 bc
       -0.053482857 -0.04983181 0.11880049 -0.020367214
000340 28 49 93 3b 34 73 a5 bc f2 93 09 3c 9c 30 65 3d
       0.004494805 -0.020196535 0.008397089 0.05595456
000350 b9 ad 7b bb 29 af 0c bb 36 55 4f 3c fc 43 89 3d
       -0.0038403107 -0.0021466708 0.012654593 0.0670242
000360 1e 46 c9 bc b1 e7 c3 bc 84 0f a2 ba f2 db 77 3b
       -0.024569567 -0.02391419 -0.0012364243 0.0037820307
000370 8e 7b a3 3d 71 00 85 bc 16 7c 99 bc 0e 2f 03 bd
       0.079825506 -0.016235562 -0.018735927 -0.032027297
000380 10 0a 4a 3d 4c 92 47 3d 67 99 96 3d 2e 4a 27 bd
       0.049326003 0.048723504 0.07353478 -0.040842228
000390 b5 6e 23 3c f5 ee aa 3c 63 24 84 bc 2b 7b 49 3c
       0.009975125 0.020865897 -0.016130632 0.012297432
0003a0 97 c5 30 bd 43 d7 f2 bc 48 35 8e 3c 82 30 0f bd
       -0.043157186 -0.02964366 0.01735939 -0.03495837
0003b0 e5 22 9c bb ff 40 07 bd 5b 63 88 bc c4 f8 27 ba
       -0.004764902 -0.03302097 -0.016648939 -0.00064076134
0003c0 4a 66 19 bd 68 7c 40 3c f3 a2 88 bc 31 89 69 3d
       -0.037451066 0.011748411 -0.016679263 0.0570156
0003d0 e9 2c dc 3c 01 89 e4 3c 67 57 fa 3d 2b 99 9b 3c
       0.026876884 0.02789736 0.12223702 0.018993935
0003e0 08 78 26 bc 6a 31 94 3d 7c 8d c5 bc 84 6e 0b 3d
       -0.010160454 0.072359875 -0.024115317 0.034040943
0003f0 ed e1 68 3d c3 bb fb bc 0b 74 91 bd 9c 2a 5c 3c
       0.056856085 -0.03072918 -0.071022116 0.013437893

fc1.bias f4 [10]
000000 d0 ef 46 3b 4e 9d 17 bc 90 57 92 bb bc 42 d5 3c
       0.0030355342 -0.009253813 -0.0044660047 0.026032798
000010 59 4c 2f bd 1e 0a 1d 3d fe a5 d6 bc 7e b4 c1 3c
       -0.04279742 0.038339727 -0.026202198 0.023645636
000020 69 7d eb 3c e9 ea 4e bc
       0.028746324 -0.012629249

fc2.weight f4 [1, 10]
000000 ac 84 47 3e e2 f8 66 3e a5 55 c7 3e a3 a4 37 be
       0.19484204 0.22555879 0.3893253 -0.17933898
000010 28 bf 34 bc 47 fd 6c be cc 5b 75 3e e5 da 84 3e
       -0.011031903 -0.23143493 0.23960799 0.25948253
000020 e7 a7 ba be 05 f9 c2 be
       -0.36456224 -0.38080612
